ml-basics/models/shape_classifier.pt (torch, 314383 bytes, 8 tensors)

conv1.weight f4 [12, 3, 3, 3]
0.17301887 0.0150797665 -0.14128192 -0.04519242 -0.13600141 -0.21173811 0.13962582 0.10217246
0.102887176 -0.02513297 0.023550935 -0.037312396 -0.06414883 -0.009994219 -0.122384176 0.020355076
0.011667857 -0.10647736 -0.1418622 0.17074996 0.16392022 -0.17951751 -0.020996753 0.11825726
0.20506482 0.027473994 -0.11232896 0.056394134 0.0486149 -0.11246407 0.12239522 0.18279956
-0.14931749 -0.09899322 -0.041201796 -0.16405083 0.055597976 -0.11011827 0.064408354 0.1379752
0.08688274 -0.034499224 0.2403534 0.19790408 0.014362041 -0.11598434 -0.20715201 -0.2214797
-0.12905858 0.00015839597 0.054892972 0.22948815 -0.098053284 -0.09928436 -0.02668719 0.09703097
-0.074608594 -0.1298679 0.12563209 -0.15399241 0.07582281 0.018177886 0.14576899 0.19016367
0.0023154174 -0.104301624 -0.17987405 0.13686243 -0.025006045 -0.0149212135 0.17981812 -0.18205985
0.0724512 0.036018748 -0.1226931 0.19426313 -0.036605645 0.09713533 -0.07120965 -0.10038074
0.028815845 0.027884107 0.11151053 -0.19356304 -0.01228604 -0.20526923 0.02197548 -0.19775476
-0.08441718 -0.14593709 -0.20288779 0.16659209 -0.094978765 -0.19006231 0.113297574 -0.05915263
-0.104190364 -0.054423314 -0.082283646 -0.0534211 -0.20315526 0.037761807 -0.20182753 0.10039833
-0.12115422 0.0002546275 -0.184292 0.08141049 0.15537854 0.15274245 -0.07124537 -0.18210869
-0.100971214 0.033045486 0.14377171 -0.16407877 -0.18413337 -0.05736134 -0.19230776 -0.13865258
0.09367719 -0.1686172 -0.083850905 -0.07567692 0.11475819 0.18943886 0.16029175 0.15193926
0.16073886 0.17237982 -0.15664178 0.09861066 -0.0992045 -0.0970482 0.07099078 0.083509475
0.02227315 -0.111128524 0.18146308 0.11672023 -0.16006972 0.0354277 -0.16854666 0.15911458
0.07803208 -0.017746521 -0.07354667 0.12960997 -0.0481629 -0.054983504 0.14655595 -0.015726626
-0.01672494 -0.1638224 -0.03465209 0.023129633 0.07945008 -0.09998449 0.105016075 0.018191347
-0.10318242 0.07156342 0.19181807 0.072856106 0.019124877 -0.0031981918 -0.13206352 0.10355594
0.100135125 0.08816724 -0.10646202 -0.083842814 0.012033799 -0.14613639 -0.035928417 -0.161994
-0.1226505 0.13120069 -0.03902695 0.13078219 -0.09460984 -0.008968807 -0.03280438 0.20036007
0.14124346 -0.15275703 0.07589819 -0.14380993 -0.10140896 -0.056186236 -0.05239112 -0.18232141
-0.055673786 -0.030370116 0.013179982 0.1596951 -0.105141565 -0.0989005 0.20246993 -0.055113
-0.16813865 0.075850174 0.096963555 0.09034107 -0.04707183 0.09383098 -0.001169975 0.10052222
0.0014410625 -0.0076073282 0.20314334 0.11434032 0.13406977 -0.117927216 -0.02149561 -0.13684766
-0.07489456 -0.06265976 0.12378871 0.13882129 -0.12312344 0.12757844 -0.17424542 -0.039840635
-0.11783578 0.13803945 0.11746096 -0.050968133 -0.09320263 0.18053848 0.19363718 0.12490458
-0.1640827 0.0006937357 0.12018127 0.13414712 -0.08966227 -0.18655153 -0.1378503 -0.05731437
-0.17065634 0.035127006 0.1520869 0.08387202 -0.14424238 -0.060808618 -0.09611448 -0.15315834
-0.01532394 0.20444067 -0.12043629 0.008656005 0.1720313 0.07792304 0.10178455 -0.077728935
00000000: dc2b 313e 2011 773c 35ac 10be b01b 39bd
00000010: f443 0bbe e0d1 58be 12fa 0e3e cb3f d13d
00000020: 83b6 d23d a9e3 cdbc e4ed c03c e2d4 18bd
00000030: 7660 83bd cbbe 23bc 8ea4 fabd b0bf a63c
00000040: 8a2a 3f3c cd10 dabd 5344 11be 14d9 2e3e
00000050: b4da 273e 70d3 37be 6201 acbc dd30 f23d
00000060: 83fc 513e 2411 e13c ba0c e6bd 89fd 663d
00000070: 6b20 473d 9053 e6bd 58aa fa3d cf2f 3b3e
00000080: afe6 18be f5bc cabd 37c3 28bd f1fc 27be
00000090: b4ba 633d b085 e1bd 87e8 833d 5f49 0d3e
000000a0: 94ef b13d 0f4f 0dbd 341f 763e 5ea7 4a3e
000000b0: c44e 6b3c 3389 edbd a81f 54be 93cb 62be
000000c0: ef27 04be 1817 2639 74d7 603d f1fe 6a3e
000000d0: 29d0 c8bd 9955 cbbd 189f dabc 2cb8 c63d
000000e0: 64cc 98bd 17fc 04be b3a5 003e 30b0 1dbe
000000f0: fd48 9b3d cae9 943c 7744 153e 44ba 423e
00000100: 42be 173b 179c d5bd e730 38be aa25 0c3e
00000110: 7ad9 ccbc 1b78 74bc 3e22 383e e66d 3abe
00000120: 4b61 943d 6588 133d 8546 fbbd eaec 463e
00000130: cdef 15bd e3ee c63d 5dd6 91bd 6b94 cdbd
00000140: 350f ec3c 366d e43c a25f e43d 6435 46be
00000150: 634b 49bc 1932 52be ec05 b43c 3980 4abe
00000160: eae2 acbd 8870 15be d1c1 4fbe 1e97 2a3e
00000170: 3a84 c2bd b29f 42be 8f08 e83d 074a 72bd
00000180: c261 d5bd fbea 5ebd 5484 a8bd 15d0 5abd
00000190: ef07 50be 20ac 1a3d e0ab 4ebe a49d cd3d
000001a0: b41f f8bd 867f 8539 0bb7 3cbe 8bba a63d
000001b0: 8d1b 1f3e 8468 1c3e 18e9 91bd b37a 3abe
000001c0: ffc9 cebd b45a 073d e438 133e 4404 28be
000001d0: 758d 3cbe b9f3 6abd 53ec 44be f1fa 0dbe
000001e0: d4d9 bf3d fda9 2cbe 06ba abbd 80fc 9abd
000001f0: 5806 eb3d 43fc 413e 8523 243e f795 1b3e
00000200: ba98 243e 5684 303e b466 20be 63f4 c93d
00000210: bb2b cbbd 35c1 c6bd 9d63 913d 0407 ab3d
00000220: 2e76 b63c 5a97 e3bd 75d1 393e 040b ef3d
00000230: 51e9 23be a31c 113d 7f97 2cbe efee 223e
00000240: 48cf 9f3d 2761 91bc a39f 96bd 7ab8 043e
00000250: 7646 45bd 6236 61bd c312 163e 20d5 80bc
00000260: be02 89bc 0fc1 27be 5aef 0dbd 5b7a bd3c
00000270: b9b6 a23d abc4 ccbd ab12 d73d 0506 953c
00000280: 4e51 d3bd d88f 923d f56b 443e 9535 953d
00000290: c6ab 9c3c c198 51bb a93b 07be 2315 d43d
000002a0: a513 cd3d 0791 b43d c208 dabd c8b5 abbd
000002b0: 6929 453c c7a4 15be ad29 13bd c1e1 25be
000002c0: 2f30 fbbd 7959 063e b9da 1fbd c4eb 053e
000002d0: cec2 c1bd e7f1 12bc e35d 06bd 312b 4d3e
000002e0: 20a2 103e 576c 1cbe 8370 9b3d e942 13be
000002f0: 80af cfbd 8a23 66bd 1298 56bd 77b2 3abe
00000300: 320a 64bd c0ca f8bc daf0 573c 1d87 233e
00000310: 7654 d7bd 588c cabd 4754 4f3e 2bbe 61bd
00000320: 8a2c 2cbe 5657 9b3d d494 c63d bd04 b93d
00000330: 64ce 40bd 752a c03d d959 99ba 98de cd3d
00000340: 09e2 bc3a e546 f9bb cf04 503e 422b ea3d
00000350: 9649 093e d383 f1bd 9017 b0bc cb21 0cbe
00000360: 5262 99bd c353 80bd ef84 fd3d 2b27 0e3e
00000370: 2428 fcbd eca3 023e 646d 32be ef2f 23bd
00000380: e353 f1bd 375a 0d3e 5f8f f03d f6c3 50bd
00000390: 05e1 bebd 14df 383e d348 463e f9cd ff3d
000003a0: 4c05 28be d1db 353a 9921 f63d dd5d 093e
000003b0: daa0 b7bd 5d07 3fbe a128 0dbe 79c2 6abd
000003c0: 89c0 2ebe 56e1 0f3d abbc 1b3e 18c5 ab3d
000003d0: 46b4 13be 7512 79bd abd7 c4bd 8ad5 1cbe
000003e0: 4311 7bbc e558 513e 4da7 f6bd ebd1 0d3c
000003f0: f928 303e 1d96 9f3d 6b74 d03d 5930 9fbd

conv1.bias f4 [12]
-0.029174246 0.06728798 0.053689912 -0.07147076 0.0202755 -0.099432305 0.06449425 -0.15687005
-0.0748874 -0.05275266 0.113757305 0.04413636
00000000: d4fe eebc 48ce 893d f4e9 5b3d 435f 92bd
00000010: ce18 a63c 2aa3 cbbd 9015 843d 8ba2 20be
00000020: 915e 99bd 2c13 58bd 97f9 e83d 54c8 343d

conv2.weight f4 [12, 12, 3, 3]
0.09616291 0.09102213 0.11931468 -0.026172565 0.08277906 0.036503933 0.07505778 0.0544093
0.061791435 0.057788726 0.0038320571 0.06815737 0.09294165 0.13737959 -0.03416545 0.045414113
0.06973376 0.09120562 0.0026343134 0.026923545 0.029779155 -0.03776771 -0.03976027 0.03203055
0.13674943 0.020823708 -0.08629222 -0.022618461 -0.04191986 0.09428996 -0.06984608 0.091791876
0.023220759 -0.08468729 -0.026768068 -0.026660202 -0.03926866 0.0006471193 -0.038761392 0.08031306
-0.035695285 0.06903892 0.078362994 0.06340192 0.06318743 0.015832165 -0.0699135 -0.0040850756
0.07367617 -0.059671625 -0.047959737 0.0017604654 0.08496109 0.024019796 0.06387414 0.0022019125
0.1307148 0.08774976 -0.031157427 0.0803991 -0.012385871 0.04700994 0.04815071 0.00670216
0.11415177 0.06102064 -0.0050035603 -0.050465617 0.003313573 -0.0013886425 0.043481544 0.014795198
-0.048789013 -0.05730165 -0.03752833 -0.074212566 0.10744053 -0.01142728 0.04940086 0.037322037
0.07512029 0.08959623 -0.012792301 -0.055260785 0.09398127 0.080289714 0.096116036 -0.0010923761
0.11752093 0.0073305266 -0.00023342847 -0.025206955 0.06833371 0.07673285 0.06459248 -0.04625198
0.09732527 0.07140912 0.056296654 -0.042418536 -0.05978265 -0.044091772 0.044313043 -0.0910184
0.07044609 0.027854884 0.022439143 -0.03050815 -0.01260607 -0.050069287 0.090007395 0.09426641
0.01997763 -0.050583318 -0.0818552 0.09031575 0.024066288 -0.0067987777 -0.05292995 -0.012733412
-0.055284876 -0.061302666 -0.058643073 0.06664629 -0.053582188 0.020735884 0.040075455 0.08125663
0.07016924 0.036629178 -0.0022734597 -0.06346588 0.07701457 0.09173747 0.09876557 0.034864433
0.0040494762 -0.007617042 0.090408385 0.08182965 0.032568872 0.077971414 0.008944174 0.06151645
-0.010264048 0.01774599 0.06563698 0.039848648 -0.035850424 0.102869004 -0.002191643 0.00095759094
0.05217448 0.0376237 0.07507299 -0.027720457 -0.06898319 0.09250546 -0.07705805 0.08353995
0.039699316 -0.0754858 -0.062862106 0.09386015 0.09069831 -0.03086272 0.07468178 0.13352148
-0.03980902 -0.058531538 0.009672629 0.1339449 0.07279784 -0.012351284 -0.0044826237 -0.0497099
0.10609356 0.015673652 0.045424122 0.045282193 0.018039273 -0.034604263 0.028488178 -0.07414848
-0.02383959 0.028996978 -0.01619545 0.091172434 0.019209985 0.01699116 0.060780704 0.025222257
0.00040106502 0.11429447 0.061294883 0.08763281 -0.015852151 0.10313957 0.07644482 0.12773599
0.13440245 -0.07807813 -0.06301593 0.035351165 0.07290246 0.036300786 -0.053424753 -0.06849768
-0.024084954 -0.064268395 0.05565816 -0.021913182 -0.010892154 -0.0124258045 0.08834414 -0.030959258
0.05657617 -0.038629554 0.016815607 0.12515654 0.014955811 0.105510205 -0.01654485 -0.059445135
0.089769304 0.08362629 0.029740604 -0.020590857 0.0900717 0.113030344 0.026274098 0.12376986
0.04726288 -0.0202618 0.020685878 0.007186295 -0.03362344 0.110628486 -0.0189381 -0.0902705
0.08503508 -0.06313817 -0.047286395 0.07221121 0.11863695 -0.019481407 0.11091567 -0.032856278
0.102420904 0.08035605 0.016806746 0.074408226 0.09764922 0.03438831 -0.06016411 0.028811332
00000000: 0ff1 c43d cf69 ba3d 415b f43d d967 d6bc
00000010: 1188 a93d 2685 153d e5b7 993d 49dc 5e3d
00000020: 0419 7d3d dfb3 6c3d 4023 7b3b 1796 8b3d
00000030: 3158 be3d 3cad 0c3e 12f1 0bbd 2604 3a3d
00000040: 93d0 8e3d 03ca ba3d 72a4 2c3b c48e dc3c
00000050: 6af3 f33c 50b2 1abd aadb 22bd 7732 033d
00000060: 0b08 0c3e 7b96 aa3c fab9 b0bd 5a4a b9bc
00000070: 29b4 2bbd 181b c13d 760b 8fbd 61fd bb3d
00000080: 7639 be3c 8870 adbd b548 dbbc 7f66 dabc
00000090: 2dd8 20bd 71a3 293a 44c4 1ebd 2c7b a43d
000000a0: 3835 12bd 4764 8d3d c77c a03d ded8 813d
000000b0: 6968 813d 75b2 813c cf2e 8fbd 19dc 85bb
000000c0: 88e3 963d 3c6a 74bd 6e71 44bd 6bbf e63a
000000d0: 1400 ae3d 2ac5 c43c 72d0 823d f64d 103b
000000e0: 1ada 053e 25b6 b33d dc3d ffbc 49a8 a43d
000000f0: 1cee 4abc 7f8d 403d ae39 453d cb9d db3b
00000100: 67c8 e93d c7f0 793d e8f4 a3bb 09b5 4ebd
00000110: 8828 593b 1c03 b6ba b419 323d 8f67 723c
00000120: fdd6 47bd 23b5 6abd 4eb7 19bd c2fc 97bd
00000130: c809 dc3d 7c39 3bbc 8e58 4a3d fede 183d
00000140: abd8 993d 3a7e b73d cd96 51bc 2259 62bd
00000150: 4179 c03d ef6e a43d 7cd8 c43d 0f2e 8fba
00000160: d0ae f03d ea34 f03b 7ac4 74b9 d17e cebc
00000170: 8bf2 8b3d 1d26 9d3d 1049 843d b772 3dbd
00000180: 7952 c73d f23e 923d 5297 663d 0fbf 2dbd
00000190: a7de 74bd 9399 34bd 9881 353d db67 babd
000001a0: 0a46 903d ed2f e43c 4bd2 b73c 3aec f9bc
000001b0: b189 4ebc 7415 4dbd cc55 b83d bf0e c13d
000001c0: 20a8 a33c 7430 4fbd b3a3 a7bd 77f7 b83d
000001d0: aa26 c53c 48c8 debb 13cd 58bd cd9f 50bc
000001e0: 6572 62bd 8118 7bbd b833 70bd da7d 883d
000001f0: ff78 5bbd 4dde a93c 2926 243d e069 a63d
00000200: e4b4 8f3d 7a08 163d 53fe 14bb 66fa 81bd
00000210: d1b9 9d3d dbe0 bb3d 9a45 ca3d 02ce 0e3d
00000220: 78b1 843b 6198 f9bb 0828 b93d 4e96 a73d
00000230: f066 053d 7aaf 9f3d 968a 123c acf8 7b3d
00000240: 8a2a 28bc 0a60 913c ae6c 863d 5638 233d
00000250: e5d7 12bd fcac d23d aba1 0fbb d706 7b3a
00000260: e8b4 553d 4f1b 1a3d debf 993d 0316 e3bc
00000270: 0f47 8dbd 8173 bd3d 9cd0 9dbd fe16 ab3d
00000280: c09b 223d 4d98 9abd d9bd 80bd c039 c03d
00000290: 09c0 b93d d1d3 fcbc c3f2 983d dbb9 083e
000002a0: c80e 23bd c4be 6fbd f279 1e3c da28 093e
000002b0: 0917 953d 0a5d 4abc f9e2 92bb 9c9c 4bbd
000002c0: 9547 d93d 0866 803c a50e 3a3d d279 393d
000002d0: 19c7 933c 33bd 0dbd 0a60 e93c 29db 97bd
000002e0: 3e4b c3bc 128b ed3c 52ac 84bc 9db8 ba3d
000002f0: 425e 9d3c 0c31 8b3c 30f5 783d e89e ce3c
00000300: 0946 d239 3813 ea3d 5810 7b3d d578 b33d
00000310: 5fdc 81bc d73a d33d 1a8f 9c3d 39cd 023e
00000320: cca0 093e 6de7 9fbd 7f0e 81bd 62cc 103d
00000330: e34d 953d 22b0 143d ead3 5abd 8348 8cbd
00000340: cf4d c5bc 269f 83bd d0f9 633d 4683 b3bc
00000350: 0175 32bc 9a95 4bbc c6ed b43d 459e fdbc
00000360: 6abc 673d 063a 1ebd e2c0 893c 0929 003e
00000370: 3809 753c bc15 d83d 1189 87bc be7c 73bd
00000380: f8d8 b73d 4344 ab3d 91a2 f33c 28ae a8bc
00000390: 8377 b83d 747c e73d c73c d73c 0d7b fd3d
000003a0: b996 413d 13fc a5bc 6e75 a93c 037b eb3b
000003b0: bbb8 09bd 3091 e23d 1324 9bbc bddf b8bd
000003c0: df26 ae3d 964e 81bd 61af 41bd 79e3 933d
000003d0: eef7 f23d 7997 9fbc c127 e33d 4e94 06bd
000003e0: 0dc2 d13d b691 a43d 4dae 893c 5763 983d
000003f0: 50fc c73d c2da 0c3d a46e 76bd be05 ec3c

conv2.bias f4 [12]
0.036766477 -0.0053875763 0.05011889 0.020388393 -0.07082608 0.06749781 -0.07852303 0.0018580222
-0.0085566165 -0.011872273 -0.09518203 -0.06107254
00000000: 7298 163d 448a b0bb 7749 4d3d 8f05 a73c
00000010: 440d 91bd 4b3c 8a3d afd0 a0bd e188 f33a
00000020: 0d31 0cbc ec83 42bc ccee c2bd 3327 7abd

conv3.weight f4 [24, 12, 3, 3]
-0.011244115 0.032942753 0.11886924 -0.043199807 -0.031382542 0.04626553 0.0037257876 -0.057657298
0.045685034 -0.039013825 -0.029996885 0.059456166 0.03191056 0.09555812 0.02031143 -0.07261921
0.11657934 -0.050137606 -0.011708953 0.12418596 -0.03928388 0.08126759 0.11007638 0.077027656
-0.007830518 -0.019554585 -0.06504012 -0.016388128 -0.07004478 -0.015015132 0.06873071 0.024156738
-0.008473265 0.013987767 0.03697004 -0.07764038 0.11261463 -0.009471625 0.109618224 0.023528699
0.100378364 0.056521192 0.061182044 0.092988506 0.008467007 0.08075923 -0.052976582 -0.014794471
0.016794361 0.112540476 0.06661204 -0.027516844 0.052684873 0.01489199 0.03495887 0.05973439
0.037775174 0.11932728 0.11762076 -0.015888246 -0.03558501 0.042862143 0.011356835 0.11804921
0.12150246 0.0014763526 -0.038619954 0.061663162 0.09445132 0.09856189 0.11793814 -0.0018560386
-0.043667246 0.119345345 0.0401049 0.12688228 0.053074498 -0.019405065 0.079349935 0.043197155
-0.02198709 -0.04403892 0.106203936 -0.0045394837 0.052381895 0.06739139 0.10509529 -0.051889557
0.020067124 0.010923987 -0.062436305 -0.0472384 -0.0076359236 0.03688195 0.08841385 0.048487388
-0.06140759 -0.016700825 0.06674129 -0.023431528 -0.006387007 0.059140068 0.03975495 -0.072774485
0.07252459 0.0023779275 0.062061436 0.020789202 -0.036826607 0.07770287 0.0050669736 -0.06181022
0.014231455 0.121844605 0.0077221747 -0.025306553 0.03206747 0.03625324 0.123567134 -0.03830127
0.061058015 -0.032706946 0.057341836 0.07356061 -0.003875279 0.0460769 -0.0042561227 0.08037602
0.09851576 -0.10383644 -0.011068746 0.048058625 0.0064930613 -0.032641504 -0.05041286 -0.07239194
-0.021599613 0.0017723249 0.010948764 -0.044640522 0.10239313 0.10032279 0.051365465 0.10620094
0.04767722 0.07276975 0.14106512 -0.06678787 0.0045236405 -0.005417863 -0.04526921 -0.06279497
0.04133486 0.048845943 0.053181708 0.09830516 -0.014104819 -0.033587053 -0.021893213 0.07419034
-0.054403827 0.017957104 0.07702735 0.10089321 0.039002538 0.034227032 0.01872473 0.0355226
-0.034017533 0.020488037 -0.02484681 -0.027121693 0.04590503 0.0010569419 0.037126675 0.07801585
0.048981324 -0.01632737 -0.070034795 0.08921002 0.09464281 0.057544395 -0.0116954995 0.112112015
0.03503443 0.121595554 -0.08337744 0.051997844 0.12581915 0.07319224 0.116870485 0.088162996
-0.036040813 0.027293459 -0.00013854663 -0.09681599 -0.010007173 0.1049285 0.008562975 -0.032111645
0.033873666 -0.006345065 -0.10145112 0.060389154 0.025696328 0.021725068 -0.03744498 0.003827254
0.04309923 0.041768845 0.0032728708 0.03848019 -0.06484365 0.04061508 0.05889562 0.025873484
0.14175102 0.002880941 0.04550655 0.10944354 0.13691387 0.028046487 0.04743211 0.11696866
0.07130847 -0.0632031 0.07605549 -0.03520243 -0.03218756 0.057080865 -0.04879366 -0.034829993
0.09455688 -0.015751448 0.122023545 0.08893352 0.042933084 0.108848326 -0.043965925 0.07553547
0.0852048 -0.016348474 0.12858605 0.022883058 -0.019501904 -0.061355628 -0.015811972 -0.0986637
0.011729055 -0.06240369 0.057290826 0.05865054 0.072500944 -0.030125333 -0.08231367 0.1092234
00000000: 3d39 38bc fbee 063d b771 f33d 48f2 30bd
00000010: fb8a 00bd ed80 3d3d 582c 743b 0f2a 6cbd
00000020: 3b20 3b3d f6cc 1fbd 07bc f5bc 4f88 733d
00000030: a6b4 023d fab3 c33d 2864 a63c 61b9 94bd
00000040: 26c1 ee3d 175d 4dbd e9d6 3fbc 3555 fe3d
00000050: 22e8 20bd 9f6f a63d ba6f e13d adc0 9d3d
00000060: 934b 00bc f030 a0bc c133 85bd 6540 86bc
00000070: a373 8fbd 0702 76bc b0c2 8c3d 5ae4 c53c
00000080: 73d3 0abc f22c 653c e66d 173d eb01 9fbd
00000090: 80a2 e63d e02e 1bbc 857f e03d 42bf c03c
000000a0: 2c93 cd3d c482 673d 069a 7a3d c270 be3d
000000b0: 34b9 0a3c 1865 a53d f9fd 58bd 8264 72bc
000000c0: 5494 893c 9f7b e63d e56b 883d 016b e1bc
000000d0: 18cc 573d 89fd 733c 0831 0f3d 0cac 743d
000000e0: 24ba 1a3d dc61 f43d 27e3 f03d 1128 82bc
000000f0: 96c1 11bd 3790 2f3d 0512 3a3c c9c3 f13d
00000100: 48d6 f83d 2c82 c13a f52f 1ebd 8392 7c3d
00000110: b26f c13d d1da c93d 8d89 f13d 5246 f3ba
00000120: 6ddc 32bd 556b f43d 0945 243d 6eed 013e
00000130: a564 593d 5ff7 9ebc 3882 a23d 80ef 303d
00000140: 451e b4bc 2862 34bd 7381 d93d f3bf 94bb
00000150: 668e 563d 7f04 8a3d 333c d73d 258a 54bd
00000160: cf63 a43c 86fa 323c 36bd 7fbd 0d7d 41bd
00000170: c536 fabb 8711 173d 5212 b53d b69a 463d
00000180: 8686 7bbd 2bd0 88bc a8af 883d 7af3 bfbc
00000190: 194a d1bb db3c 723d 16d6 223d ca0a 95bd
000001a0: c687 943d 01d7 1b3b 2234 7e3d 1e4e aa3c
000001b0: 7fd7 16bd af22 9f3d db08 a63b b72c 7dbd
000001c0: 0c2b 693c aa89 f93d 4c0a fd3b b04f cfbc
000001d0: 2e59 033d 477e 143d c410 fd3d cbe1 1cbd
000001e0: f817 7a3d b8f7 05bd 46df 6a3d f2a6 963d
000001f0: 65f8 7dbb 22bb 3c3d f276 8bbb 2f9c a43d
00000200: a1c2 c93d 33a8 d4bd b059 35bc 1fd9 443d
00000210: bfc3 d43b 19b3 05bd b77d 4ebd 3a42 94bd
00000220: acf1 b0bc 5b4d e83a 7262 333c fbd8 36bd
00000230: 7db3 d13d 0976 cd3d 9864 523d e17f d93d
00000240: 3049 433d 4f08 953d 6073 103e 14c8 88bd
00000250: 0c3b 943b 5488 b1bb 356c 39bd a69a 80bd
00000260: be4e 293d af12 483d 10d5 593d 3754 c93d
00000270: e617 67bc 9492 09bd 6559 b3bc 1bf1 973d
00000280: 8cd6 5ebd c71a 933c 84c0 9d3d 19a1 ce3d
00000290: 20c1 1f3d a531 0c3d 9b64 993c 2580 113d
000002a0: f855 0bbd 87d6 a73c 8a8b cbbc 502e debc
000002b0: ea06 3c3d 1689 8a3a 2412 183d c6c6 9f3d
000002c0: a4a0 483d fac0 85bc 676e 8fbd beb3 b63d
000002d0: 17d4 c13d acb3 6b3d 7b9e 3fbc fc9a e53d
000002e0: 4380 0f3d 1707 f93d cbc1 aabd b1fb 543d
000002f0: bcd6 003e d0e5 953d cb59 ef3d cd8e b43d
00000300: 889f 13bd 8896 df3c d446 11b9 7647 c6bd
00000310: 20f5 23bc c1e4 d63d b84b 0c3c 8087 03bd
00000320: 1dbf 0a3d 43ea cfbb 9bc5 cfbd 9e5a 773d
00000330: 1b81 d23c c5f8 b13c e85f 19bd abd2 7a3b
00000340: d188 303d cf15 2b3d a97d 563b 679d 1d3d
00000350: bfcc 84bd 005c 263d 893c 713d a1f4 d33c
00000360: 2e27 113e 2bce 3c3b 1465 3a3d ef23 e03d
00000370: 2633 0c3e bfc1 e53c 2c48 423d 448d ef3d
00000380: 2d0a 923d a070 81bd fbc2 9b3d 6c30 10bd
00000390: 1ad7 03bd a0cd 693d dcdb 47bd e5a9 0ebd
000003a0: 0aa7 c13d 2e09 81bc 7be7 f93d c722 b63d
000003b0: 9ada 2f3d dfeb de3d 9d15 34bd 57b2 9a3d
000003c0: db7f ae3d 3ced 85bc 10ac 033e 4075 bb3c
000003d0: 75c2 9fbc 0a50 7bbd 1c88 81bc 3210 cabd
000003e0: 392b 403c 039b 7fbd c9a9 6a3d 8c3b 703d
000003f0: 607b 943d 67c9 f6bc 1294 a8bd 85b0 df3d

conv3.bias f4 [24]
-0.03409604 -0.06220076 0.015288308 0.07965413 0.072990626 -0.006914483 0.016749239 -0.07543232
-0.07662918 -0.011244184 -0.06660876 0.027722044 -0.0676195 -0.036202535 -0.06036022 -0.05865895
0.049781486 0.071566224 -0.04052871 -0.06498016 -0.013047209 -0.051098727 -0.07130871 0.07330699
00000000: 4aa8 0bbd 39c6 7ebd d07b 7a3c b421 a33d
00000010: 1c7c 953d e392 e2bb b335 893c 437c 9abd
00000020: c2ef 9cbd 8739 38bc 2c6a 88bd 5719 e33c
00000030: 187c 8abd 1c49 14bd 473c 77bd 5e44 70bd
00000040: ace7 4b3d 5091 923d 6f01 26bd 5114 85bd
00000050: f6c3 55bc e64c 51bd 4d0a 92bd fa21 963d

fc.weight f4 [3, 24576]
0.0032309238 -0.011195004 -0.0005364529 -0.006719898 -2.3934408e-05 0.0021671832 -0.007366797 -0.010590477
0.0063140737 -0.0032042158 -0.012346161 -0.0088838795 -0.013989313 -0.00017504478 -0.00040136825 -0.00024375085
-0.007769768 0.0016495117 -0.008453444 -0.0117432475 0.0015626603 -0.008708031 0.007545267 -0.010875812
-0.008529428 -0.0033715751 -0.0043786024 -0.003419907 -0.0023125573 -0.000546195 -0.0073642423 0.0072094915
-0.004463759 0.009975024 -0.00931983 -0.009826522 -0.011032911 -0.0043526017 0.0014217477 -0.0048051416
-0.013929698 0.0065037617 0.012596804 0.0057494435 -0.00027542244 0.0042095874 0.0031692176 -0.0022430443
0.008954388 0.0024886536 0.009768726 0.01317322 -0.008699702 -0.0006149769 -0.005619407 0.005347252
-0.0010268287 0.00084392884 -0.01213708 0.007551144 -0.0025413681 -0.008056484 0.011298562 -0.0076780296
-0.01021926 0.0013206067 -0.021388426 -0.025373124 -0.024011157 0.0008010852 9.454746e-05 0.0047459793
0.018354563 0.012905029 -0.001992111 0.016227145 0.014094001 0.0113126775 -0.0055492423 -0.0019484268
0.0014249837 0.012186142 -0.0027652977 -0.0062186117 0.0002616772 -0.006182733 -0.009659218 -0.007514172
0.007404951 -0.0014497826 -0.011656456 0.0062904637 0.001460447 0.004556499 0.00532891 -0.00013138664
0.0005805316 -0.014071451 -0.029303253 -0.04154969 -0.038540922 -0.011707302 0.001606032 0.0077073295
0.015410925 0.016053097 0.008276906 0.012282146 0.0067785094 0.011906417 0.010203966 -0.004743131
-0.012091375 -0.009599419 -0.017507333 -0.010973775 -0.013194139 -0.00030516367 -0.0048234523 -0.011963608
-0.0049423473 0.0039440156 -0.0029315895 -0.0029611562 -0.008205812 0.012964879 0.011661581 0.01650196
-0.0018835084 -0.009342981 -0.037730355 -0.047550812 -0.04231561 -0.024989042 0.0067590387 0.010004557
0.015108581 0.024125922 0.029163705 0.011891588 -0.003187468 -0.007786657 -0.0021891012 -0.014505499
-0.0047293734 0.0058962647 -0.015492505 -0.009318005 -0.005794529 -0.0086836135 -0.009255567 -0.0062621315
0.0053120656 0.0026615586 0.0077157742 0.0036561766 0.005499398 -0.002015649 0.009908835 0.010633372
0.007441862 -0.0063252104 -0.03630921 -0.032432258 -0.03306729 -0.02736601 -0.015506091 0.008826949
0.008187072 0.012668131 0.019715711 0.023303347 0.014076876 0.011116875 -0.0069780545 -0.002657455
-0.0075776335 0.006750527 -0.0025788138 -0.007257946 -0.01569392 -0.024193767 -0.015956735 -0.014499281
-0.009593852 0.007572106 0.0009796012 0.003680878 -0.0061318814 0.009198502 -0.00342454 -0.00013880307
-0.007810824 -0.014499597 -0.019491589 -0.022717522 -0.0007185581 -0.029275289 -0.033827472 -0.0073757437
0.011666833 0.026215546 0.016744 0.018431578 0.012938283 0.004434461 0.0025106133 -0.006865063
-0.011088438 -0.0030652217 0.006518578 0.0011182117 -0.011229278 -0.008896259 -0.0139517225 -0.011061954
-0.016201038 -0.0056509697 0.005471538 0.00075528515 -0.014226765 0.0039598094 0.012439745 -0.0061477213
0.0032659967 -0.009051085 -0.014490798 -0.0071191452 -0.0014184188 -0.011144382 -0.025897369 -0.029535117
0.0032174464 0.008389107 0.0270561 0.0063590566 0.003544289 0.00543523 0.007438622 0.00011426907
0.0076316646 -0.005431863 -0.010564595 -0.007627222 -0.010130553 0.0018606861 0.0032432284 -0.019256944
-0.013724259 -0.012231592 -0.0033420112 0.005730899 -0.005954942 0.008161232 -0.016601779 -0.012533327
00000000: e8bd 533b 406b 37bc bfa0 0cba 9732 dcbb
00000010: c0c6 c8b7 4d07 0e3b 2c65 f1bb ae83 2dbc
00000020: 4ae6 ce3b d2fd 51bb 8d47 4abc b18d 11bc
00000030: 6e33 65bc 3a8c 37b9 bc6e d2b9 5f97 7fb9
00000040: 8a99 febb 6e34 d83a 5080 0abc c066 40bc
00000050: 2ed2 cc3a 21ac 0ebc 4a3e f73b 7630 32bc
00000060: 04bf 0bbc a5f5 5cbb 617a 8fbb 8520 60bb
00000070: 468e 17bb 872e 0fba be4f f1bb 993d ec3b
00000080: b944 92bb 486e 233c 33b2 18bc 6cff 20bc
00000090: 62c3 34bc 45a0 8ebb f059 ba3a 7374 9dbb
000000a0: 6339 64bc 821d d53b d362 4e3c d465 bc3b
000000b0: 9366 90b9 94f0 893b a6b2 4f3b 0a00 13bb
000000c0: 6db5 123c ae18 233b 020d 203c 7dd4 573c
000000d0: 3289 0ebc 6736 21ba 0123 b8bb 0038 af3b
000000e0: a796 86ba 1b3b 5d3a 9ada 46bc 966f f73b
000000f0: 158d 26bb 58ff 03bc 9b1d 393c fb97 fbbb
00000100: af6e 27bc 3518 ad3a c836 afbc 4cdb cfbc
00000110: 0cb3 c4bc ebff 513a c847 c638 2984 9b3b
00000120: 4f5c 963c 9d6f 533c 148e 02bb caee 843c
00000130: 86ea 663c cf58 393c 6bd6 b5bb 5b62 ffba
00000140: 85c6 ba3a 62a8 473c ff39 35bb 7fc5 cbbb
00000150: b831 8939 8698 cabb b241 1ebc 7139 f6bb
00000160: 3ba5 f23b a206 beba b8fa 3ebc 3c20 ce3b
00000170: 786c bf3a af4e 953b 239e ae3b d5c4 09b9
00000180: d12e 183a f18b 66bc 600d f0bc 0230 2abd
00000190: 16dd 1dbd fccf 3fbc 7e81 d23a c48d fc3b
000001a0: 1b7e 7c3c c981 833c dc9b 073c 0e3b 493c
000001b0: 421e de3b 2213 433c 892e 273c 446c 9bbb
000001c0: e71a 46bc e246 1dbc 8a6b 8fbc 59cb 33bc
000001d0: 3b2c 58bc 60fe 9fb9 0d0e 9ebb 0203 44bc
000001e0: 6af3 a1bb cd3c 813b e91f 40bb f50f 42bb
000001f0: ac71 06bc a56a 543c 3710 3f3c 1e2f 873c
00000200: 0ee0 f6ba 4d13 19bc 258b 1abd a4c4 42bd
00000210: 2253 2dbd d2b5 ccbc ed7a dd3b 27ea 233c
00000220: fb89 773c baa3 c53c b9e8 ee3c efd4 423c
00000230: d7e4 50bb 3727 ffbb 0677 0fbb 79a8 6dbc
00000240: dcf8 9abb 7435 c13b 47d4 7dbc 8caa 18bc
00000250: 08e0 bdbb b745 0ebc a9a4 17bc 9132 cdbb
00000260: d610 ae3b 8b6d 2e3b 9bd4 fc3b 779c 6f3b
00000270: 4b34 b43b fb18 04bb ab58 223c 9837 2e3c
00000280: ddda f33b b643 cfbb f7b8 14bd b0d7 04bd
00000290: 9171 07bd af2e e0bc 420d 7ebc e89e 103c
000002a0: 1223 063c fe8d 4f3c d882 a13c a9e6 be3c
000002b0: b3a2 663c 8e23 363c 2aa8 e4bb b228 2ebb
000002c0: cc4d f8bb 8633 dd3b 5101 29bb 10d4 edbb
000002d0: 8990 80bc 0232 c6bc b3b7 82bc 648e 6dbc
000002e0: 882f 1dbc 6e1f f83b f665 803a e33a 713b
000002f0: f3ed c8bb 50b5 163c 3f6e 60bb aa8b 11b9
00000300: f1f1 ffbb b88f 6dbc d3ac 9fbc 191a babc
00000310: 9e5d 3cba bbd2 efbc ad8e 0abd 39b0 f1bb
00000320: 3f26 3f3c fcc1 d63c b72a 893c d2fd 963c
00000330: 18fb 533c f44e 913b 1a89 243b 53f4 e0bb
00000340: 48ac 35bc e3e1 48bb cc99 d53b f590 923a
00000350: 01fb 37bc 9dc1 11bc c495 64bc 333d 35bc
00000360: 0ab8 84bc c52b b9bb 964a b33b 54fe 453a
00000370: 6117 69bc 4ac1 813b 12d0 4b3c d372 c9bb
00000380: 550a 563b 014b 14bc d06a 6dbc b847 e9bb
00000390: 3dea b9ba ed96 36bc b826 d4bc a1f3 f1bc
000003a0: cbdb 523b 7772 093c c1a4 dd3c a25f d03b
000003b0: 4d47 683b 041a b23b afbf f33b bda3 ef38
000003c0: 0b13 fa3b c5fd b1bb 2017 2dbc c7ed f9bb
000003d0: 9efa 25bc 44e2 f33a 588c 543b bdc0 9dbc
000003e0: b7db 60bc 0467 48bc a505 5bbb 44ca bb3b
000003f0: ad21 c3bb b0b6 053c 7400 88bc 9558 4dbc

fc.bias f4 [3]
-0.0013566985 -0.0005822681 0.005794654
00000000: 3fd3 b1ba 5aa3 18ba 15e1 bd3b
