ml-basics/models/shape_classifier.pt (torch, 314383 bytes, 8 tensors)

conv1.weight f4 [12, 3, 3, 3]
000000 97 98 2c 3e e2 2d 1d 3e 5a 8f dc 3d fb 8c 6f bd
       0.16855083 0.15349534 0.1076953 -0.05848406
000010 5b 87 80 bd fd 28 07 3e 57 7f 96 bd e4 57 88 bd
       -0.06275817 0.1319923 -0.07348507 -0.06657389
000020 f5 5f 73 bd 46 f8 ab 3c 9e 52 08 3e 74 be a9 3d
       -0.059417684 0.02099241 0.13312766 0.08288279
000030 4a 88 d0 bc db 96 30 3e 2e 44 0a 3e f3 08 77 3d
       -0.025455613 0.17245047 0.13502571 0.06031127
000040 bf 2f 13 3d 45 79 cd 3d 1b 7e 24 3e c4 9b c3 3d
       0.035934206 0.10032896 0.1606373 0.09551194
000050 ed ed 40 3d 28 41 49 bd 39 bc 73 3d 29 ef 44 3e
       0.047101904 -0.049134403 0.059505675 0.19231857
000060 0e 34 37 3e 6f 37 95 3c 46 07 8e bb b9 a0 d5 3d
       0.17890951 0.01821491 -0.004334363 0.10431046
000070 37 92 0a 3d ec 73 2b 3e fc 8e 7f ba 3c 37 a7 bc
       0.033830848 0.1674344 -0.00097487844 -0.02041208
000080 05 04 ec bc 3e 81 5e 3d c9 ef 45 3c 92 3d 53 3d
       -0.02881051 0.054322474 0.012081095 0.05157239
000090 08 26 da 3d d7 0b 6e 3d 58 1c fb bc ca ad 52 be
       0.10651785 0.05811676 -0.030653164 -0.20574108
0000a0 11 67 1e bc 4b 29 14 3e 01 90 b8 3d 1f e7 90 39
       -0.009668128 0.14468877 0.090118416 0.0002763802
0000b0 d9 cf cf 3d f1 6d ef bd 43 70 43 be 60 0c df bd
       0.10147066 -0.116908915 -0.19085793 -0.10891032
0000c0 bc f3 4a 3c 5a 0f 47 be aa 4f 91 3d 4c 72 ef 3c
       0.012387212 -0.1943945 0.07095273 0.029229306
0000d0 65 6b f6 bc 0a 42 ba bd db b5 7a bd 95 db 36 be
       -0.030080507 -0.09094627 -0.061208587 -0.17857201
0000e0 0a df 28 3d 19 7a 7c bc a3 0e 00 be 4c e5 c6 bc
       0.04122833 -0.01540997 -0.12505583 -0.02427926
0000f0 7b 77 03 be 8b eb 7a bb 1b 8c 76 bd 34 29 2f be
       -0.12838547 -0.0038287367 -0.06019221 -0.17105561
000100 60 60 f3 3d d1 74 46 3e 7f 54 d7 3d 05 58 db 3d
       0.118836164 0.193805 0.10514163 0.10710148
000110 2b 05 d5 bd b7 a3 bb bd 26 ef 2e 38 6b e1 dc bd
       -0.10401376 -0.091620855 4.1707557e-05 -0.107851826
000120 bc e4 31 be 0b 6a 63 bd 34 1e 09 bd 55 8a eb 3a
       -0.17372411 -0.055521052 -0.03347607 0.0017970303
000130 d2 49 ee bd a9 5c f6 bc 35 42 9d 3d 23 16 26 be
       -0.11635174 -0.03007348 0.076786436 -0.16219382
000140 76 0e f0 bc f8 25 3e bb 6b 17 d2 bd c7 70 cd 3d
       -0.02930377 -0.002901433 -0.10258373 0.10031276
000150 d3 c3 0c be 4f 42 ca 3d b4 36 db bd 0b 6e d5 3d
       -0.13746576 0.098759286 -0.10703793 0.1042138
000160 29 55 15 be ff df 3f 3e ce c5 22 be 9e 51 b0 bd
       -0.14583267 0.18737791 -0.15895769 -0.08609317
000170 61 26 41 3d a9 c4 4a be b4 e3 50 be 27 c3 bd 3d
       0.04715574 -0.19801582 -0.20399362 0.09265738
000180 ef 75 21 be 3d 22 8e bd 47 6a 82 3d fc a6 41 3e
       -0.15767644 -0.06940124 0.06367927 0.18911356
000190 be 20 f6 3d 3f 6a 6b 3e c0 3e 94 bd 2a 9a 04 3d
       0.12017964 0.22989748 -0.07238531 0.032373585
0001a0 d6 ae 57 3e 8a b2 09 be d8 e9 0f be 47 18 fd 3d
       0.21062788 -0.13447013 -0.14054048 0.12358146
0001b0 a5 d1 1c be a4 c1 36 be 47 8a 8f bd ca f2 29 3d
       -0.15314348 -0.17847306 -0.07008796 0.041491307
0001c0 64 fe 14 bc 1d 26 1b 3e 1f c5 dd bd 7d 92 ac 3d
       -0.009093855 0.15151258 -0.108286135 0.08426378
0001d0 3e d9 23 3d 82 34 93 bd 32 59 71 3d a2 8f d6 3d
       0.0400021 -0.071877494 0.058922954 0.104766145
0001e0 9c b5 d8 bd 0e 5c 5e bd 5b 88 27 3e fd 2f 69 bd
       -0.10581514 -0.05428701 0.16360609 -0.05693053
0001f0 d9 80 c0 3c 89 88 23 3e 50 f7 af bd 35 68 cb 3d
       0.02349894 0.15970053 -0.08592093 0.09931985
000200 87 69 9d 3d b4 16 d4 3d e7 bc b9 3d 12 be 32 be
       0.07686143 0.10355893 0.090692334 -0.17455319
000210 3a 0e 40 3e 78 0c bf 3d 41 9d 28 3e f8 49 63 be
       0.18755427 0.0932855 0.16466238 -0.22196186
000220 32 df e6 3d da eb c9 bd a1 07 bb bd 9a 1e 0a 3d
       0.1127304 -0.09859438 -0.091323145 0.03372059
000230 cd ba 92 3d 85 94 15 bd d0 6f 32 3e 15 45 03 3d
       0.07164536 -0.036518592 0.17425466 0.032048304
000240 3c d6 50 3d 1a 20 3b 3c c3 6e c8 3c c7 a8 36 be
       0.05098556 0.011421228 0.024466878 -0.17837821
000250 45 e4 05 3d 97 76 61 bc 75 3f b8 bd 25 26 39 3e
       0.032688398 -0.013761184 -0.089964785 0.18080957
000260 33 f6 3f bd 39 ab 9a 3d 30 50 8b 3d 57 54 20 bd
       -0.046865653 0.075521894 0.06802404 -0.039142933
000270 46 d3 61 be 78 f9 14 be ac 1c 7d 3d db fb 5a bc
       -0.2205325 -0.1454829 0.06179492 -0.013365711
000280 e5 4a d8 3d e8 d8 1c 3e 71 2f d6 bd f8 9f 8a 3d
       0.1056116 0.15317118 -0.104582675 0.06768793
000290 02 b1 03 3d cc a0 24 3e 0e bb b7 3d 28 3b b4 ba
       0.03215123 0.16076964 0.08971225 -0.001375054
0002a0 c6 35 27 be 3b 83 d1 3c a6 a9 22 3e e6 c0 ee bd
       -0.16329107 0.02557527 0.15885028 -0.11657886
0002b0 bc 82 fa 3d 32 88 9d 3d f7 79 d5 bd 52 88 b7 bd
       0.12231967 0.07691993 -0.104236536 -0.08961548
0002c0 2d ac bc 3d 52 50 2a 3d 2e de d5 bd a1 d2 41 3e
       0.092125274 0.041580506 -0.10442768 0.18928005
0002d0 5e 7a f9 3d 91 30 ad 3d c2 4f 1b 3e 0d bf 2d 3e
       0.12181543 0.08456529 0.15167144 0.16967411
0002e0 06 9c 2e be ae 95 0a 3e 74 aa 85 bd 3e 99 f8 bc
       -0.17051706 0.13533661 -0.06526652 -0.03034651
0002f0 ac 87 16 bd 3b fd 2c be 17 8d cc bd 9a 3c 60 3e
       -0.03675048 -0.16893475 -0.09987848 0.21898118
000300 1d 81 96 bd 37 e2 5d 3d 50 34 46 3e 8e 02 16 3e
       -0.07348845 0.054170813 0.19355893 0.14649412
000310 7b fd b7 3d 84 79 0b bd f9 d2 3c be aa ca 4e 3d
       0.089838944 -0.034051433 -0.18439855 0.050486244
000320 a8 25 83 3c a6 34 ce 3d 73 13 0a be 54 de 4c 3e
       0.016009167 0.10068636 -0.13483982 0.20006686
000330 0b 8e ae bd 65 d7 3e be 9c ac 55 be 61 d2 01 3e
       -0.08523186 -0.18636854 -0.20866627 0.1267791
000340 7f f3 20 be 79 df a1 3d 24 c8 cf bd 4e 90 18 be
       -0.15717886 0.07903952 -0.10145596 -0.14898798
000350 90 56 28 3d 81 aa eb bd 64 37 e4 bd 4b e0 8e 3d
       0.041098177 -0.115071304 -0.111433774 0.06976374
000360 50 77 07 be 71 a5 8a bd 42 9c 32 3d f6 c1 56 3e
       -0.13229108 -0.06769837 0.04360605 0.20972428
000370 ff 96 56 3e 47 23 16 be 66 66 72 bd 17 1d b9 bd
       0.20956038 -0.14661895 -0.059179686 -0.090387516
000380 c9 06 ea bc a1 29 04 3e 0e 79 c6 3d d1 95 44 3e
       -0.028567689 0.12906505 0.09691058 0.19197775
000390 63 a9 2a bd f4 f3 24 3e 0a 70 40 3e ca ae 95 3c
       -0.041665446 0.16108686 0.1879274 0.018271822
0003a0 05 ce 1a 3e 35 2b 04 3d e3 72 58 3e c0 42 03 3e
       0.15117653 0.032267768 0.21137576 0.12818432
0003b0 5e ac e1 bc 01 99 85 bc 06 04 2c be b5 51 4d 3e
       -0.027548011 -0.01630831 -0.1679841 0.200507
0003c0 09 10 75 3d 58 ec 74 bc ff 74 af 3d c7 8f 99 bd
       0.059829745 -0.014948927 0.08567237 -0.074981265
0003d0 bc 58 2e 3b 08 d9 01 3e cf fc 01 be ea 27 39 be
       0.0026603183 0.12680447 -0.12694095 -0.18081632
0003e0 44 e2 aa 3c 43 5c 12 bc e5 2a 7f bd be d5 21 be
       0.020859845 -0.00893313 -0.062296767 -0.15804192
0003f0 3d 2b 91 3d a1 d9 94 bd 9b 3f f6 3d db f3 0f 3e
       0.07088325 -0.07268072 0.120238505 0.14057867

conv1.bias f4 [12]
000000 2b c2 f4 3d f1 3d f0 bc 07 d2 b0 3d 81 4c 9b bd
       0.11951097 -0.029326411 0.086338095 -0.07582951
000010 bb 3f a6 3d cd 2d 05 be 46 dc 19 3d 21 f9 16 be
       0.08117624 -0.13005753 0.037563585 -0.14743473
000020 5a 9d a0 3d ba 7c 81 bd 6e da 07 3e a2 e6 3c 3e
       0.078425124 -0.06322618 0.13266918 0.18447354

conv2.weight f4 [12, 12, 3, 3]
000000 bd 35 d7 bc 69 91 cb 3b ed f4 32 bd c7 28 50 3d
       -0.026270742 0.0062124026 -0.04369061 0.05082014
000010 34 e4 39 3d a3 20 31 3d 0b da 53 bc f8 c4 ce bc
       0.045383647 0.043244015 -0.012930403 -0.025240406
000020 b1 a8 5e bc 8a 6f 99 bc 54 88 8c 3d 1b 14 88 bc
       -0.013590024 -0.018729944 0.0686194 -0.01661115
000030 7d 64 62 bd e1 50 ab 3c d2 9f 9f bd b9 99 83 bd
       -0.055271614 0.02091259 -0.07794155 -0.06425805
000040 e2 87 99 bd 18 4a b3 3d cd 70 36 3d 0a 48 41 3d
       -0.07496621 0.08754367 0.04454117 0.047187842
000050 25 cd 5c b9 c0 7e e2 3d 31 a1 00 3d d7 5e 01 3c
       -0.00021057257 0.11059332 0.031403724 0.007896147
000060 24 29 ad 3d 27 37 97 3c f1 5a 02 3e f3 4f 41 bd
       0.084551126 0.018458916 0.12730004 -0.047195386
000070 6a fd 04 3c e5 06 8f 3d c5 d0 9b bc e0 a4 f1 37
       0.008117059 0.06983737 -0.019020448 2.8806215e-05
000080 9f 7c de 3d a5 c0 c9 bb 96 2b fb bb d6 cc 9b 3d
       0.10863613 -0.006156998 -0.007665108 0.07607429
000090 a3 fe 7a 3d 77 54 21 bd 4a 1a 39 bd ce b3 a2 3b
       0.061277997 -0.039387193 -0.045191087 0.004965282
0000a0 db c8 8a 3d 08 8c 2d bd 44 ee ef 3c c3 49 e9 3c
       0.067765914 -0.042369872 0.029288419 0.028477555
0000b0 a0 22 df bd 7b ea 35 bd ee 21 20 3e fa 53 42 bd
       -0.10895276 -0.04441307 0.15637943 -0.047443368
0000c0 88 b6 03 be fc 94 2c 3d 99 52 95 3d 02 ba cd bd
       -0.12862599 0.04213427 0.07291145 -0.10045244
0000d0 40 ca 10 3d 0c 5d 48 3d be aa 91 3d 74 dd 72 bd
       0.03534913 0.04891686 0.071126446 -0.059293225
0000e0 9a 33 82 bd 4e 01 c7 bd 05 b6 8d 3d 60 f2 24 3d
       -0.063574985 -0.09717046 0.06919483 0.04027021
0000f0 f5 e3 9c bc e8 81 5c bd 25 70 91 3d ba 0c d0 3d
       -0.019151667 -0.053834826 0.07101468 0.101586774
000100 f7 f2 9b bc 8b a1 ef 3c 52 ce a1 3d dd e0 da 3d
       -0.019036753 0.029251834 0.079006806 0.106874205
000110 6b a1 f1 bb ff ef ee bc bd 58 fb 3c 2d 23 82 bd
       -0.007373979 -0.029167173 0.030681962 -0.063543655
000120 22 06 4d bd 76 94 98 bc 6c d1 c1 3b dc cb 1e 38
       -0.050054677 -0.01862548 0.0059148576 3.7859994e-05
000130 23 5b 0c 3d 72 41 b1 bd 66 e5 22 3b 31 50 b1 3c
       0.034266602 -0.08655061 0.002485597 0.021644684
000140 8b be 6c bd c2 99 6b 3d 93 d4 8b 3c ab 0f a7 3d
       -0.057798903 0.05751968 0.017069137 0.08157285
000150 0e 17 d4 3d 57 79 6e 3d 62 f7 14 3d c9 af d6 3c
       0.1035596 0.058221187 0.036368735 0.026206868
000160 94 2b 05 3e 55 90 98 3d 07 89 c9 bb 4f 03 8c 3d
       0.13004905 0.07449404 -0.006150368 0.068365686
000170 25 14 2e 3b 32 5b f0 3c ea dc 92 3d d7 a0 f3 3c
       0.00265623 0.02934036 0.07171042 0.02973978
000180 05 38 c1 3d 4e e2 43 bc f2 fb d6 3c c1 80 a5 3d
       0.09434513 -0.011955811 0.026243184 0.080811985
000190 38 38 de bc 9e cf ea 3d f9 97 20 bc 9d 2c 1f 3d
       -0.027126417 0.11465381 -0.009801858 0.038860906
0001a0 8c d4 2e bd 50 42 a9 bd 53 3d a2 3c f6 a1 2f 3d
       -0.04268317 -0.08264601 0.019804632 0.042879067
0001b0 59 9e 16 3d 0c 12 31 3d 47 04 81 bd 36 b7 b4 3d
       0.036772106 0.0432301 -0.06299644 0.08824007
0001c0 43 1b 52 bd 9f bf c4 3c c4 0e 9f bc 17 e4 08 bc
       -0.05129553 0.024017153 -0.01941622 -0.008355162
0001d0 7f 2f 51 3c 14 d2 b6 3d 0b 4e b0 3d 9c 5b a1 3b
       0.012767672 0.08926788 0.086086355 0.0049242508
0001e0 1a 6a c4 bc 43 f4 bf 3b 9e 0a 6b bc af 6e ba bd
       -0.023976374 0.0058579757 -0.014345793 -0.091031425
0001f0 16 3c 8c 3d 65 76 36 bc b3 11 1c bd da a7 34 bd
       0.06847398 -0.011136626 -0.038102817 -0.04410539
000200 1f cf 82 bd fe 0b c5 bc b1 c4 19 bc f4 db 97 bd
       -0.063871615 -0.02405357 -0.009385274 -0.074149996
000210 24 79 c7 3d 9f 3d b0 3d 75 e5 55 bd 63 0a d5 3c
       0.097399026 0.08605503 -0.05222078 0.02600593
000220 f8 e8 bb 3c 76 d5 19 bd 8b ba e5 bc da 99 b3 3c
       0.022938237 -0.037557088 -0.028043052 0.021923948
000230 b6 e7 fa 3d b8 39 59 bd 1c cf 71 bd 18 1a 77 bd
       0.122512266 -0.05303356 -0.059035406 -0.06032762
000240 f0 0e 84 bd 7a 6f 3c 3d 40 17 4d 3d 04 94 ea 3c
       -0.064481616 0.04600475 0.050071 0.028635032
000250 77 da c2 3d 1c dc 8a bd fd cc ba bd f1 c5 5a 3d
       0.09514325 -0.06780264 -0.0912113 0.053411428
000260 4b 79 b3 3d 49 c2 97 3d 98 9a 4a bd 7b e8 ce 3b
       0.08763369 0.07410104 -0.04946384 0.006314335
000270 65 bd ff 3d 98 7d a8 3d 80 c3 61 bc 2f 34 0a bc
       0.12487296 0.0822708 -0.013779521 -0.008435293
000280 90 eb 5c bd 09 7b 60 3d dd 8a 9a 3b 73 5d b3 bd
       -0.053935587 0.054804835 0.004716261 -0.087580584
000290 d3 0b 7e bd a0 2b c3 bd cb 03 9d bd 72 80 f1 3c
       -0.062022995 -0.09529805 -0.07666739 0.029480193
0002a0 52 c4 c9 bd db 6c b1 bc df 18 b9 bd d9 43 a8 3d
       -0.09851898 -0.021658352 -0.09037947 0.08216066
0002b0 df 6f 09 bd c1 f8 8b bb 26 07 0c bd 7c 7a b7 bc
       -0.033553954 -0.004271597 -0.034186505 -0.022397272
0002c0 fe d8 e1 3c e8 ad 8f bd 56 42 ec bc ee 56 a2 3d
       0.02756929 -0.07015592 -0.028840225 0.07926737
0002d0 0b 55 39 3d 3b d2 ac bb 96 b3 b4 bd c1 10 78 bd
       0.04524712 -0.005274085 -0.08823316 -0.060562853
0002e0 fc 00 97 3d bc 17 d6 3c d4 41 88 bc d1 b5 9e bc
       0.07373235 0.026134364 -0.016632952 -0.019373806
0002f0 24 08 8a 3d f3 5a 13 bd b1 a5 f8 3c 00 4b 06 3e
       0.06739834 -0.035975408 0.030352445 0.13114548
000300 19 99 fd 3d 75 04 54 3d 17 ba 15 3d 2f 37 40 3d
       0.12382717 0.051762063 0.036554422 0.046927627
000310 57 2b ac 3d 4d dd 05 3d cb df 0c bd 91 6a a5 3d
       0.08406704 0.032681752 -0.034393113 0.080769666
000320 ff bb 7f 3d 25 7c e5 3b cb 1b 21 bd bc 85 24 3b
       0.062435146 0.0070033246 -0.039333146 0.0025104126
000330 e6 7c 49 bd 43 a8 86 3b a9 a0 8f bd 5d f5 ae 3d
       -0.049191378 0.004109414 -0.07013065 0.08542893
000340 d1 20 22 3d 7d ea 4f bc 3f e4 df 3d 4b 7f 6b 3c
       0.039582077 -0.012690184 0.10932206 0.014373611
000350 54 8a 85 3d f4 a5 81 3d 51 a7 ec bc 40 4f 42 3d
       0.065205246 0.06330481 -0.028888376 0.04743886
000360 ec ec 3b bd 5f 19 44 3d fe 46 06 bd af 09 ae 3d
       -0.045880243 0.04787576 -0.032782547 0.08497941
000370 a9 c7 9a 3d 6c 09 7c bd 87 ec 90 3d b9 e8 db 3c
       0.075576134 -0.061532423 0.07076364 0.02684437
000380 e8 6f 98 3c 90 7f 96 3c 98 98 36 bd da 3a ea bc
       0.018608049 0.018371373 -0.04457912 -0.028592516
000390 5a 32 01 3c 7d cd 8d 3d 9c f5 41 3c b5 34 28 bd
       0.00788554 0.069239594 0.011838343 -0.04106589
0003a0 45 f7 89 bd 0c 6c 94 bb 35 03 85 bc 90 8e 1b 3c
       -0.06736616 -0.0045294818 -0.01623688 0.009494439
0003b0 e8 e2 3a bd 18 3f 8f 3c f8 94 ee bd d9 67 3c bd
       -0.04562655 0.01748614 -0.11649507 -0.045997474
0003c0 05 c4 fe ba e3 8d 14 3d 2c 12 2b 3d b5 f1 c8 bd
       -0.001943708 0.036268126 0.041765377 -0.09811727
0003d0 51 0d e8 3c 78 f4 b5 3d e6 43 8a bd a1 1b f6 3c
       0.028326662 0.08884519 -0.06751232 0.030042471
0003e0 5f 78 f7 bc 46 ef ad 3c 17 4b 86 bc f3 0d ab bd
       -0.030208765 0.021232259 -0.016393228 -0.0835227
0003f0 aa b7 88 bd e3 c0 97 3c 48 f1 5f bd 7f e7 37 3d
       -0.06675656 0.018524593 -0.054673463 0.044898506

conv2.bias f4 [12]
000000 9e 1b 84 3d 24 d9 95 bc 71 75 da bd 5f 15 29 bd
       0.0645058 -0.018292017 -0.106669314 -0.041280147
000010 59 f5 cf bd 3c ad 7f bc 7d e1 b4 bb b2 99 c1 3c
       -0.10154218 -0.015605267 -0.0055200444 0.023632858
000020 e0 88 54 3d 64 c1 9a 3c 42 70 99 bd f1 34 05 3c
       0.051888347 0.018891044 -0.074921146 0.008130298

conv3.weight f4 [24, 12, 3, 3]
000000 47 6b 47 3d 35 43 99 3d c5 20 3d 3d 7a 8e 87 3d
       0.048686292 0.07483522 0.04617383 0.06618972
000010 df ab 3a bd d1 a9 a3 3c c7 68 33 3c 40 4e 16 bd
       -0.045574065 0.019978436 0.010950274 -0.03669572
000020 0c 72 6b 3d e6 68 b4 bd 2c f9 5e 3c 0b f7 4f bd
       0.05748181 -0.0880907 0.013609212 -0.050772708
000030 97 49 a4 3d f9 76 fb 3c 20 8c ab 3d 0b f0 83 bc
       0.08021849 0.030696379 0.08376336 -0.016105672
000040 97 a2 d3 3b 06 cc d9 3d a0 45 de bc 84 5d bf 3d
       0.006458591 0.106346175 -0.02713281 0.093440086
000050 ec df 24 bd 72 99 13 3d 42 f2 a5 3d df 82 02 3d
       -0.04025261 0.03603501 0.08102848 0.03186309
000060 9b 77 4a 3d d3 2b 7c 3d 35 e4 ac bc 89 cd 9b 3d
       0.04943047 0.06156523 -0.021104911 0.07607562
000070 0e 20 4e bd 82 d0 a5 bc 05 bd 9c bd e4 c8 ba 3d
       -0.05032354 -0.020241026 -0.0765324 0.09120348
000080 dd d3 52 3d 26 57 51 bc 64 1a c4 bd 1d 67 1e 3d
       0.05147158 -0.012777125 -0.09575346 0.038672555
000090 86 09 bc 3d ce 54 c9 3d 8c d3 ae bb 0d 7a b0 bd
       0.09181504 0.09830628 -0.005335277 -0.08617029
0000a0 00 05 80 3d 3a a3 08 bd a8 56 c1 bc 89 29 a1 bc
       0.06250954 -0.03335879 -0.023600891 -0.019673126
0000b0 26 e3 bd 3c 07 44 80 bd 40 61 62 bd e2 89 47 bd
       0.023179602 -0.06262975 -0.055268526 -0.04871548
0000c0 94 68 9b bd c0 09 1f bd 0d 31 34 bc 56 44 4f 3d
       -0.07588306 -0.038827658 -0.010998023 0.05060228
0000d0 49 79 e2 3c 5d 91 dd bc 17 14 6d bc f3 1b 54 bd
       0.027645724 -0.027046854 -0.014470122 -0.051784467
0000e0 4b 37 3e bc 83 c6 ba 3d 19 5d 7e bb 66 fc 0a 3d
       -0.011609863 0.09119894 -0.0038812815 0.033932112
0000f0 0e 91 e6 3d 06 a6 f0 3d c6 ba 42 3c f5 81 09 bd
       0.11258136 0.117504165 0.011885351 -0.033571202
000100 7f 04 12 bd e3 9b 84 3d d7 3d 94 bd bb ab ff 3c
       -0.03564882 0.064750455 -0.072383575 0.031209817
000110 72 63 91 bd 36 cc 8b 3b 44 12 a8 3c ce 75 98 bd
       -0.07099046 0.004266287 0.020516522 -0.074443445
000120 9d f5 64 bd 41 0c da bb 9c 50 d8 bc e8 9c 87 bc
       -0.055898298 -0.006654293 -0.026405625 -0.01655431
000130 be fa 50 3d da 27 a3 3d 7d 56 0f bd 00 1f 86 bc
       0.051020376 0.079665855 -0.03499459 -0.016372204
000140 6c 49 4c bd b2 e8 b4 bd a5 26 b4 bd 03 7b 3b bc
       -0.049874708 -0.088334456 -0.08796433 -0.0114429025
000150 f6 72 6f 3d 39 1b 40 3d 78 67 cd 3d b8 eb c4 bc
       0.058459245 0.04690096 0.10029501 -0.02403818
000160 0d fc 9d bc 92 30 f5 3c 93 79 b0 bc fe 70 06 bc
       -0.019285226 0.029930387 -0.021542346 -0.00820565
000170 61 14 18 3d d4 2a 88 bd a3 66 ba 3d 85 ca 8e bd
       0.03712881 -0.06648794 0.09101608 -0.06972221
000180 a9 d0 a3 3d 8a 4d 2a 3d 16 75 26 bd 9c b2 1c bd
       0.07998783 0.041577853 -0.040639006 -0.038256273
000190 ff cb a3 bd 49 f2 49 3d 6a b3 95 3c de 1a 0e bd
       -0.079978935 0.049303327 0.018274028 -0.03469359
0001a0 ea d9 af bd aa 6d b2 3d ff 4c 66 3c 05 9b 20 bd
       -0.08586486 0.08712323 0.014056443 -0.03921034
0001b0 4c 2b 32 3d 77 1e a2 3d b3 ef 80 bd 94 8a 23 bd
       0.043498322 0.07915967 -0.06295719 -0.03992708
0001c0 be 55 69 bb e2 f7 44 bd ed 97 37 3b 70 f8 92 bd
       -0.0035604085 -0.048087962 0.0028014139 -0.07176292
0001d0 ee 5b b7 bd a6 d2 05 bd 3b b6 a0 bb 59 53 e8 3c
       -0.08953081 -0.032671593 -0.004904536 0.028360056
0001e0 22 34 13 3d ee 49 d5 3b 8d 34 36 3d 44 4d 31 bd
       0.03593839 0.0065090572 0.04448371 -0.043286577
0001f0 df 5c 01 be ca 67 98 3b 41 43 98 bd 96 c5 92 3d
       -0.12633084 0.0046510445 -0.07434703 0.07166593
000200 9a 08 47 3d 75 d9 af 3d 8b a5 74 3d 5e bf 5d bd
       0.048592187 0.085863985 0.059728187 -0.05413758
000210 dd b0 61 bd ea 25 f6 bc 4b ca 23 3c 48 52 64 bd
       -0.05510031 -0.030047376 0.009996961 -0.055742532
000220 7b d6 a9 3d f4 49 45 bd b7 84 06 bd e2 bc 51 3d
       0.08292862 -0.04816623 -0.03284141 0.051205523
000230 ba 64 db 3d 20 56 3c 3d 8e d4 cc bd 6c 18 be 3d
       0.107125714 0.045980573 -0.10001479 0.09282002
000240 e3 f2 63 3d fa 51 b3 3d e5 a5 58 bd c1 8c 57 ba
       0.055651557 0.0875587 -0.052892584 -0.0008222573
000250 ee ef 39 bd 3d b1 05 3d 62 2d 09 3d 2d 37 a1 bc
       -0.04539483 0.03263973 0.033490546 -0.01967963
000260 82 95 76 3a 3c 37 bf 3d 46 d3 e6 3c f4 f0 7d 3c
       0.00094064337 0.09336707 0.028176915 0.015499342
000270 c1 f4 a6 bc e8 1c 75 3d 54 73 6b 3c 05 33 12 3d
       -0.02038038 0.05984202 0.014370758 0.035693187
000280 19 b5 85 bd 45 dd 56 3d 32 ec 75 3c 9c b1 d8 bc
       -0.06528682 0.052457113 0.015009927 -0.026451878
000290 4e 1c 2e bd a7 48 0a 3c db b4 01 be 62 fc 24 3d
       -0.042507462 0.008440173 -0.12666647 0.040279754
0002a0 60 37 83 bc 2a e9 69 bd a6 68 30 bd e8 5c 49 3d
       -0.016017616 -0.05710713 -0.04306855 0.049160868
0002b0 32 84 f2 3d 6b 74 50 bd a4 b1 0a bc 8b 48 b3 3c
       0.118416205 -0.050892275 -0.008465204 0.021885177
0002c0 e9 52 dd 3d c2 9a a2 bb a0 79 57 3d 8e 43 97 3c
       0.108068295 -0.004962296 0.052606225 0.01846483
0002d0 73 fd 0b be 8e 6c 90 bd 4c 61 b1 bd 8c 8e 8d ba
       -0.13670902 -0.07051955 -0.08661136 -0.0010799929
0002e0 b4 82 cc 3c e5 bd 88 bd d5 21 81 3b 78 e7 ba bd
       0.024964668 -0.066768445 0.0039408007 -0.091261804
0002f0 20 b0 99 bd 2f b3 97 bd e9 2c 79 bd 97 02 8b 3b
       -0.07504296 -0.074072234 -0.060833845 0.004242252
000300 fc 1c 4b bc 4d 21 6c bd d9 a1 92 bb 45 b2 d3 bd
       -0.012397047 -0.057648946 -0.00447486 -0.103367366
000310 55 ee da bd 99 89 7f 3d 76 59 f6 bc 8f 35 b5 3a
       -0.106899895 0.062387083 -0.030071955 0.0013825166
000320 10 2c aa bd d9 56 1d 3d 7c 37 3a bd 36 be 08 3d
       -0.083091855 0.038412903 -0.04546307 0.033384524
000330 44 aa bc bd 07 8f 9b bc 8b 11 91 3d 28 f0 af 3d
       -0.09212163 -0.0189891 0.07083424 0.08590728
000340 e8 95 91 bd 6f 95 3f 3d 64 85 8d 3c 96 23 24 bd
       -0.071086705 0.04677337 0.01727552 -0.040073
000350 43 5c 6a 3d 2d a2 7a bd 4f 93 4d 3d 96 a8 9a 3b
       0.057216894 -0.06118982 0.050189313 0.004719804
000360 22 0c 1b 3d 3a ac 97 3d e2 32 c4 bd f5 ba cb bc
       0.037853368 0.074058965 -0.095800176 -0.024869421
000370 7b 10 8d bd eb 0a 2f bc 4c 78 b8 bd 72 f8 8c bc
       -0.06887909 -0.010683755 -0.0900732 -0.017208312
000380 6e 73 c7 bd 3c 0c 74 bd e8 01 6b 3d 32 4a 5a bd
       -0.09738813 -0.05958198 0.057374865 -0.053293414
000390 c9 57 3b 3d c4 f6 27 bd 62 ff dc bd ff 04 a9 bd
       0.045738015 -0.04100682 -0.10790898 -0.08252906
0003a0 b0 b1 2a bc 15 c8 42 bd 6d 18 8f bc f1 8c b0 bb
       -0.010418341 -0.047554094 -0.017467702 -0.0053878953
0003b0 e4 2f c6 bd bb 38 b3 bd 76 0c 89 3d 8b d7 53 bd
       -0.09677103 -0.08751055 0.0669183 -0.05171923
0003c0 25 dc 5f 3d 29 f8 93 bd 40 8a cb 3a 38 b7 3b bd
       0.054653306 -0.07225067 0.0015528873 -0.045829028
0003d0 e3 f4 8f 3d 99 a8 79 3c f6 09 ad bd 78 8d 75 3d
       0.0702913 0.015237951 -0.084491655 0.05994937
0003e0 96 1b a7 bd e8 2e ca 3b 34 f3 8c bd bb 40 be bd
       -0.081595585 0.0061701424 -0.06882325 -0.0928969
0003f0 4b 4a 44 bc ff 3d dc bb 90 d1 06 bd cb fd 04 bd
       -0.011980603 -0.0067212577 -0.032914698 -0.0324686

conv3.bias f4 [24]
000000 ad b4 71 bd 7e bc 98 3c 97 c5 76 3d 63 9b 08 3c
       -0.059010196 0.018644568 0.06024703 0.008337828
000010 97 f5 54 bd af a5 1d bd 16 80 9a 3d 8d da 9d 3d
       -0.051992025 -0.038488086 0.07543962 0.07707701
000020 e3 bb 83 bb ad d2 18 bd f4 3b 2b 3d c9 ba 9e 3d
       -0.0040202006 -0.03731029 0.041805223 0.0775047
000030 c9 5a 21 3d 59 52 0f 3c 37 27 ce 3d 3a 5b ce 3d
       0.03939322 0.008747661 0.100660734 0.10075994
000040 84 de 32 bd 69 fa c1 bd 9e 40 3d 3d 56 59 dd 3a
       -0.04366924 -0.0947159 0.046204202 0.0016887586
000050 35 41 67 3d 06 d3 e7 bb 30 fb 8b 3d 10 d5 c0 3d
       0.05645867 -0.0070747165 0.068350196 0.094156384

fc.weight f4 [3, 24576]
000000 e6 d6 a1 bb 2f c0 41 bc 37 99 16 bb 89 f5 8d bc
       -0.004938948 -0.011825605 -0.0022979507 -0.017328994
000010 08 8c ed bb 5f 88 60 bb f0 b0 76 bc bd 34 02 bc
       -0.007249359 -0.003426097 -0.015056834 -0.007947144
000020 9a c3 73 bc 9e fa 8d 3a a7 a6 ef bb 54 e9 19 bc
       -0.014878178 0.0010832136 -0.0073135677 -0.009394009
000030 7b 17 40 bc 3f a4 15 bc 4f 18 15 3a 64 0d 74 bb
       -0.011724348 -0.009133398 0.0005687521 -0.0037239427
000040 a5 86 9b bb b1 63 49 bc 93 b1 99 bc 4b b6 19 bc
       -0.0047462755 -0.012291835 -0.018761432 -0.009381841
000050 b8 14 df bb 52 2c 19 bc 99 bc df ba cd 9f f3 bb
       -0.00680789 -0.009348946 -0.0017069756 -0.007434821
000060 db ca 92 bc 1d b9 7a bc 76 bf d1 bb d9 f5 d0 ba
       -0.017918995 -0.0153029235 -0.0064009978 -0.0015942409
000070 72 a7 5e ba 6e ea 64 ba 18 94 0d 3b 8c b6 bd bb
       -0.0008493579 -0.00087324425 0.0021603163 -0.0057895835
000080 a2 5b 18 3c bc b9 e6 39 80 7d db bb 46 98 ae bb
       0.009299191 0.000440074 -0.0066983104 -0.005328211
000090 b4 bc 98 bb b0 e5 99 bb 7f d6 16 ba 50 43 81 bb
       -0.004661167 -0.0046965703 -0.00057540083 -0.003944792
0000a0 f5 f3 d6 ba 47 bf f3 bb 45 de 22 3b b0 1d 0e 3c
       -0.0016399609 -0.0074385735 0.0024851721 0.00867407
0000b0 47 8f cf 3b d3 e1 bb 3b 52 d5 9c 3b 14 4b d6 bb
       0.0063342187 0.0057337075 0.004786172 -0.0065397117
0000c0 4a c0 3b 3b 94 65 e7 b9 03 89 fc bb 20 cc 0d bc
       0.0028648549 -0.00044135435 -0.0077067628 -0.008654624
0000d0 9d 11 0c bc f0 e9 03 bc 33 df 21 3b 61 c9 d4 bb
       -0.008549121 -0.0080513805 0.0024699687 -0.006493733
0000e0 ee 59 bf bb 8b 1f d9 3a a5 62 26 3c 1b f2 ad 3b
       -0.005839578 0.0016565187 0.010155355 0.0053084022
0000f0 0f c1 d9 3b 61 5b c4 3b fe ef d3 bb 55 c7 4f bc
       0.006645329 0.0059923385 -0.0064678183 -0.012681802
000100 a3 b0 de 3a 50 3f d0 b9 f4 04 e2 bb eb 33 e5 bc
       0.0016989898 -0.00039720023 -0.006897563 -0.027978858
000110 4f be f7 bc 3c 36 f1 bc 2d 62 82 bc ad 2d 3a bc
       -0.030242113 -0.029444806 -0.015915954 -0.011363429
000120 cf 71 09 3c c7 9d 61 3c f2 d0 34 3c a9 a4 62 3c
       0.0083889505 0.013770527 0.011036145 0.013833203
000130 d5 ba b4 3c 79 27 fa 3b dd 13 a1 b9 f3 3f 87 3b
       0.022061745 0.0076341 -0.00030723112 0.0041274964
000140 66 52 75 b9 48 ed e6 3b 15 60 13 bb fe f4 1a bc
       -0.00023395717 0.007047329 -0.002248769 -0.009457825
000150 96 51 6a bc a7 19 f7 bb d8 90 d7 bb 23 38 34 bb
       -0.014301678 -0.0075409 -0.006578546 -0.002749928
000160 0b ac 4c bb 7d 55 b5 bb 40 f4 68 b7 19 0a 37 3b
       -0.0031230475 -0.0055338726 -1.38851465e-05 0.0027929603
000170 64 52 60 bb 30 ad 01 3c e2 dd 16 bc 6a 69 4a bb
       -0.0034228796 0.007914826 -0.009208174 -0.0030885586
000180 e2 81 10 bc 02 20 84 bc 6c 81 6c bc 93 7e c2 bc
       -0.008820029 -0.016128544 -0.014435153 -0.023741996
000190 fc 50 d3 bc 34 f4 09 bd ef 26 74 bc 0d 2a ce 3b
       -0.025795452 -0.033680156 -0.014901861 0.006291634
0001a0 cb e0 6e 3c 49 f5 c6 3c e8 92 8d 3c cb 37 07 3c
       0.014579962 0.024286883 0.017281964 0.008253048
0001b0 db f3 80 3c f5 e9 37 3c 73 c2 80 3c 51 d7 95 3c
       0.01574128 0.011225213 0.01571772 0.018291147
0001c0 ec 27 b3 3b 8a 59 6d 3c d5 83 0d 3b ec 7b 17 3a
       0.0054674055 0.01448668 0.002159347 0.00057786587
0001d0 c1 b6 4f 3a da 20 f8 ba cd d3 96 bc 2c 06 9d bb
       0.0007923656 -0.0018930689 -0.018411541 -0.0047919955
0001e0 44 07 76 3a 8f e4 27 bc 52 8a 0d ba 3c 46 b7 3b
       0.0009385238 -0.010247364 -0.00053993345 0.0055930894
0001f0 88 44 95 3b 61 0c 8d 3b 92 c6 a8 bb 1e f4 51 bc
       0.0045552887 0.004304454 -0.0051506246 -0.01281455
000200 b6 0d 60 bb f5 42 fc bb 14 84 e5 bc 90 b3 ec bc
       -0.003418786 -0.0076984116 -0.028017081 -0.028894216
000210 6d b5 92 bc ab 5e a8 bc c5 8b 34 bb df 98 90 3c
       -0.017908776 -0.020552954 -0.002754913 0.01765102
000220 5d 97 af 3b 87 52 3b 3c 56 ff 93 3b 0d b8 d8 bb
       0.00535862 0.01143325 0.0045165224 -0.0066137374
000230 b8 4a 66 3b da 20 85 3c b1 8b 63 3c 95 51 80 3c
       0.003513975 0.016251016 0.0138882855 0.015663901
000240 79 c9 9f 3c ed 68 b2 3c cf c5 65 3b 89 dd 46 3c
       0.01950525 0.021778548 0.003506053 0.012137779
000250 8e 56 8b 3c af 39 7c 3b eb f2 23 bb d1 48 bf bb
       0.017009046 0.003848653 -0.0025016617 -0.005837538
000260 39 4e 8d bb a1 9c 91 bb 92 bc 21 bb d9 af 32 3c
       -0.0043123034 -0.0044437204 -0.0024679047 0.010906183
000270 c5 07 cc ba ed b8 9f 3b da 0f ec bb 2a ea ca bb
       -0.001556628 0.00487434 -0.007204038 -0.0061924653
000280 96 32 16 3b 35 4c 07 bc ce 1d d2 bc 93 7e 9a bc
       0.0022918335 -0.008257915 -0.025648978 -0.018859183
000290 7a 03 32 3c 5e 6a 29 3c 34 f6 a5 bb e1 a3 48 bc
       0.010865087 0.010340301 -0.00506475 -0.012246103
0002a0 76 d4 45 bc 4d 4c 55 bb 10 09 67 bc bf 84 e9 ba
       -0.01207458 -0.00325467 -0.014101282 -0.0017816051
0002b0 a2 6e c8 3a 0d f4 de bb 72 14 62 3c b1 a0 89 3b
       0.001529176 -0.0068039955 0.01379882 0.004200064
0002c0 8e ad 89 3a 69 7b b0 3c 37 f7 ca 3c de c5 84 3c
       0.0010503994 0.021543222 0.024776084 0.016207632
0002d0 6d 6e 29 3c 10 c4 6d 3c ae 63 8c 3b a6 2c 00 bc
       0.010341269 0.014512077 0.0042843437 -0.007823145
0002e0 16 ad ff ba 0c 13 26 ba e1 39 e4 bb 98 b4 7f 3b
       -0.001950654 -0.00063352357 -0.0069649075 0.0039017554
0002f0 8f 20 dc 3b 83 7a ff 3b c6 55 ce bb 94 96 e8 bb
       0.0067177485 0.007796587 -0.006296846 -0.0070980284
000300 20 1e b5 bb 1a 3a a4 bc 43 8d b2 bb 83 55 6a 3c
       -0.005527273 -0.020047236 -0.0054489686 0.014302614
000310 11 11 f8 3b 38 d2 88 3c 98 c3 c3 3b 1e 02 95 bc
       0.007570394 0.016701803 0.0059742443 -0.018189486
000320 4b 5a 96 bc 0a ca 5c 3a b2 58 2f ba 42 7d 3e 3b
       -0.018353602 0.000842244 -0.0006688937 0.0029066359
000330 30 d7 1a bc f7 83 cd bb 43 b9 8b 3b 88 2a 5c 3b
       -0.009450719 -0.006271835 0.0042640283 0.0033594687
000340 c3 c2 ae 3b 5e 21 c9 ba 28 9b 67 3b 44 2c 11 3c
       0.005333276 -0.0015345027 0.0035340283 0.008860651
000350 80 c2 03 3d ed af 87 3b bb 37 94 3c 5f 0a 8a 3c
       0.03216791 0.004140845 0.01809298 0.016850648
000360 e2 c8 2a bc f7 5a 2c 3b ff b0 58 bb d9 dd 84 3b
       -0.010423871 0.0026299336 -0.0033064482 0.0040547666
000370 0d 9a f5 3a 75 ae 9c 3b 14 30 4e bc 8a bb fc bb
       0.0018737927 0.004781539 -0.012584705 -0.007712786
000380 c6 ea 23 bc 87 1b 18 bc 47 9b df 3b bb fb b8 3c
       -0.010004705 -0.009283907 0.0068239304 0.022580972
000390 b0 fa 04 3d 5a 0a 51 3b 6c 3b 4f bc 6c c0 67 bc
       0.032465637 0.003189704 -0.012648445 -0.014144998
0003a0 e9 8c a7 bc a6 3b d8 bb 7f 4f d6 bb a7 af a8 3b
       -0.020452933 -0.0065989075 -0.0065402384 0.0051478925
0003b0 04 a1 92 b9 35 a2 3e 3c e3 58 32 bc 20 42 87 3b
       -0.00027967256 0.011635353 -0.01088545 0.0041277558
0003c0 c3 73 cf 3c f6 da b2 3c ea c0 40 3b 09 4a a8 3b
       0.025323754 0.021832924 0.002941186 0.005135779
0003d0 83 a6 58 3c 13 57 48 3b 37 3d 13 3b 38 ed 8f 3c
       0.013223293 0.0030569478 0.0022466907 0.01756917
0003e0 3f 25 2a 3c f2 a4 2e 3a 1e 8a 3f bb 8c b8 df 3b
       0.010384857 0.0006662152 -0.0029226611 0.0068274196
0003f0 ab c7 f4 3b ef 29 04 bb ee fc 9e ba 59 51 90 ba
       0.0074700913 -0.0020166596 -0.0012129822 -0.0011010572

fc.bias f4 [3]
000000 e1 50 13 bb ca ac 17 3b 3b 07 5f 3a
       -0.0022478628 0.0023143762 0.00085078523
